…
        "dow_emb_dim": 24,
        "adaptive_emb_dim": 80,
        "feed_forward_dim": 256,
        "cross_feed_forward_dim": 64,
        "cross_heads": 8,
        "num_heads": 4,
        "num_layers": 2,
        "dropout": 0.1
    }
}
=========================================================================================================
Layer (type:depth-idx)                                  Output Shape              Param #
=========================================================================================================
MTLSTformer                                             [16, 12, 170, 2]          163,200
├─Linear: 1-1                                           [16, 12, 170, 24]         96
├─Linear: 1-2                                           [16, 12, 170, 24]         96
├─Embedding: 1-3                                        [16, 12, 170, 24]         6,912
├─Embedding: 1-4                                        [16, 12, 170, 24]         168
├─CrossTaskAttentionLayer: 1-5                          [16, 12, 170, 152]        --
│    └─AttentionLayer: 2-1                              [16, 170, 12, 152]        --
│    │    └─Linear: 3-1                                 [16, 170, 12, 152]        23,256
│    │    └─Linear: 3-2                                 [16, 170, 12, 152]        23,256
│    │    └─Linear: 3-3                                 [16, 170, 12, 152]        23,256
│    │    └─Linear: 3-4                                 [16, 170, 12, 152]        23,256
│    └─Dropout: 2-2                                     [16, 170, 12, 152]        --
│    └─LayerNorm: 2-3                                   [16, 170, 12, 152]        304
│    └─Sequential: 2-4                                  [16, 170, 12, 152]        --
│    │    └─Linear: 3-5                                 [16, 170, 12, 64]         9,792
│    │    └─ReLU: 3-6                                   [16, 170, 12, 64]         --
│    │    └─Linear: 3-7                                 [16, 170, 12, 152]        9,880
│    └─Dropout: 2-5                                     [16, 170, 12, 152]        --
│    └─LayerNorm: 2-6                                   [16, 170, 12, 152]        304
├─CrossTaskAttentionLayer: 1-6                          [16, 12, 170, 152]        --
│    └─AttentionLayer: 2-7                              [16, 170, 12, 152]        --
│    │    └─Linear: 3-8                                 [16, 170, 12, 152]        23,256
│    │    └─Linear: 3-9                                 [16, 170, 12, 152]        23,256
│    │    └─Linear: 3-10                                [16, 170, 12, 152]        23,256
│    │    └─Linear: 3-11                                [16, 170, 12, 152]        23,256
│    └─Dropout: 2-8                                     [16, 170, 12, 152]        --
│    └─LayerNorm: 2-9                                   [16, 170, 12, 152]        304
│    └─Sequential: 2-10                                 [16, 170, 12, 152]        --
│    │    └─Linear: 3-12                                [16, 170, 12, 64]         9,792
│    │    └─ReLU: 3-13                                  [16, 170, 12, 64]         --
│    │    └─Linear: 3-14                                [16, 170, 12, 152]        9,880
│    └─Dropout: 2-11                                    [16, 170, 12, 152]        --
│    └─LayerNorm: 2-12                                  [16, 170, 12, 152]        304
├─ModuleList: 1-7                                       --                        --
│    └─SelfAttentionLayer: 2-13                         [16, 12, 170, 152]        --
│    │    └─AttentionLayer: 3-15                        [16, 170, 12, 152]        93,024
│    │    └─Dropout: 3-16                               [16, 170, 12, 152]        --
│    │    └─LayerNorm: 3-17                             [16, 170, 12, 152]        304
│    │    └─Sequential: 3-18                            [16, 170, 12, 152]        78,232
│    │    └─Dropout: 3-19                               [16, 170, 12, 152]        --
│    │    └─LayerNorm: 3-20                             [16, 170, 12, 152]        304
│    └─SelfAttentionLayer: 2-14                         [16, 12, 170, 152]        --
│    │    └─AttentionLayer: 3-21                        [16, 170, 12, 152]        93,024
│    │    └─Dropout: 3-22                               [16, 170, 12, 152]        --
│    │    └─LayerNorm: 3-23                             [16, 170, 12, 152]        304
│    │    └─Sequential: 3-24                            [16, 170, 12, 152]        78,232
│    │    └─Dropout: 3-25                               [16, 170, 12, 152]        --
│    │    └─LayerNorm: 3-26                             [16, 170, 12, 152]        304
├─ModuleList: 1-8                                       --                        --
│    └─SelfAttentionLayer: 2-15                         [16, 12, 170, 152]        --
│    │    └─SpatialAttentionConvlutionLayer: 3-27       [16, 12, 170, 152]        92,872
│    │    └─Dropout: 3-28                               [16, 12, 170, 152]        --
│    │    └─LayerNorm: 3-29                             [16, 12, 170, 152]        304
│    │    └─Sequential: 3-30                            [16, 12, 170, 152]        78,232
│    │    └─Dropout: 3-31                               [16, 12, 170, 152]        --
│    │    └─LayerNorm: 3-32                             [16, 12, 170, 152]        304
│    └─SelfAttentionLayer: 2-16                         [16, 12, 170, 152]        --
│    │    └─SpatialAttentionConvlutionLayer: 3-33       [16, 12, 170, 152]        92,872
│    │    └─Dropout: 3-34                               [16, 12, 170, 152]        --
│    │    └─LayerNorm: 3-35                             [16, 12, 170, 152]        304
│    │    └─Sequential: 3-36                            [16, 12, 170, 152]        78,232
│    │    └─Dropout: 3-37                               [16, 12, 170, 152]        --
│    │    └─LayerNorm: 3-38                             [16, 12, 170, 152]        304
├─ModuleList: 1-9                                       --                        --
│    └─SelfAttentionLayer: 2-17                         [16, 12, 170, 152]        --
│    │    └─AttentionLayer: 3-39                        [16, 170, 12, 152]        93,024
│    │    └─Dropout: 3-40                               [16, 170, 12, 152]        --
│    │    └─LayerNorm: 3-41                             [16, 170, 12, 152]        304
│    │    └─Sequential: 3-42                            [16, 170, 12, 152]        78,232
│    │    └─Dropout: 3-43                               [16, 170, 12, 152]        --
│    │    └─LayerNorm: 3-44                             [16, 170, 12, 152]        304
│    └─SelfAttentionLayer: 2-18                         [16, 12, 170, 152]        --
│    │    └─AttentionLayer: 3-45                        [16, 170, 12, 152]        93,024
│    │    └─Dropout: 3-46                               [16, 170, 12, 152]        --
│    │    └─LayerNorm: 3-47                             [16, 170, 12, 152]        304
│    │    └─Sequential: 3-48                            [16, 170, 12, 152]        78,232
│    │    └─Dropout: 3-49                               [16, 170, 12, 152]        --
│    │    └─LayerNorm: 3-50                             [16, 170, 12, 152]        304
├─ModuleList: 1-10                                      --                        --
│    └─SelfAttentionLayer: 2-19                         [16, 12, 170, 152]        --
│    │    └─SpatialAttentionConvlutionLayer: 3-51       [16, 12, 170, 152]        92,872
│    │    └─Dropout: 3-52                               [16, 12, 170, 152]        --
│    │    └─LayerNorm: 3-53                             [16, 12, 170, 152]        304
│    │    └─Sequential: 3-54                            [16, 12, 170, 152]        78,232
│    │    └─Dropout: 3-55                               [16, 12, 170, 152]        --
│    │    └─LayerNorm: 3-56                             [16, 12, 170, 152]        304
│    └─SelfAttentionLayer: 2-20                         [16, 12, 170, 152]        --
│    │    └─SpatialAttentionConvlutionLayer: 3-57       [16, 12, 170, 152]        92,872
│    │    └─Dropout: 3-58                               [16, 12, 170, 152]        --
│    │    └─LayerNorm: 3-59                             [16, 12, 170, 152]        304
│    │    └─Sequential: 3-60                            [16, 12, 170, 152]        78,232
│    │    └─Dropout: 3-61                               [16, 12, 170, 152]        --
│    │    └─LayerNorm: 3-62                             [16, 12, 170, 152]        304
├─Linear: 1-11                                          [16, 170, 12]             21,900
├─Linear: 1-12                                          [16, 170, 12]             21,900
=========================================================================================================
Total params: 1,815,184
Trainable params: 1,815,184
Non-trainable params: 0
Total mult-adds (M): 26.43
=========================================================================================================
Input size (MB): 0.52
Forward/backward pass size (MB): 3372.10
Params size (MB): 6.61
…
