…
val: torch.Size([3394, 307, 1, 12]) torch.Size([3394, 307, 12])
test: torch.Size([3394, 307, 1, 12]) torch.Size([3394, 307, 12])
delete the old one and create params directory myexperiments/PEMS04/dstagnn_h1d0w0_channel1_1.000000e-04
param list:
CUDA	 cuda:0
in_channels	 1
nb_block	 4
nb_chev_filter	 32
nb_time_filter	 32
time_strides	 1
batch_size	 64
graph_signal_matrix_filename	 ./data/PEMS04/PEMS04.npz
start_epoch	 0
epochs	 110
DSTAGNN_submodule(
  (BlockList): ModuleList(
    (0): DSTAGNN_block(
      (sigmoid): Sigmoid()
      (tanh): Tanh()
      (relu): ReLU(inplace=True)
      (pre_conv): Conv2d(12, 512, kernel_size=(1, 1), stride=(1, 1))
      (EmbedT): Embedding(
        (pos_embed): Embedding(12, 307)
        (norm): LayerNorm((307,), eps=1e-05, elementwise_affine=True)
      )
      (EmbedS): Embedding(
        (pos_embed): Embedding(307, 512)
        (norm): LayerNorm((512,), eps=1e-05, elementwise_affine=True)
      )
      (TAt): MultiHeadAttention(
        (W_Q): Linear(in_features=307, out_features=96, bias=False)
        (W_K): Linear(in_features=307, out_features=96, bias=False)
        (W_V): Linear(in_features=307, out_features=96, bias=False)
        (fc): Linear(in_features=96, out_features=307, bias=False)
      )
      (SAt): SMultiHeadAttention(
        (W_Q): Linear(in_features=512, out_features=96, bias=False)
        (W_K): Linear(in_features=512, out_features=96, bias=False)
      )
      (cheb_conv_SAt): cheb_conv_withSAt(
        (relu): ReLU(inplace=True)
        (Theta): ParameterList(
            (0): Parameter containing: [torch.cuda.FloatTensor of size 1x32 (GPU 0)]
            (1): Parameter containing: [torch.cuda.FloatTensor of size 1x32 (GPU 0)]
            (2): Parameter containing: [torch.cuda.FloatTensor of size 1x32 (GPU 0)]
        )
        (mask): ParameterList(
            (0): Parameter containing: [torch.cuda.FloatTensor of size 307x307 (GPU 0)]
            (1): Parameter containing: [torch.cuda.FloatTensor of size 307x307 (GPU 0)]
            (2): Parameter containing: [torch.cuda.FloatTensor of size 307x307 (GPU 0)]
        )
      )
      (gtu3): GTU(
        (tanh): Tanh()
        (sigmoid): Sigmoid()
        (con2out): Conv2d(32, 64, kernel_size=(1, 3), stride=(1, 1))
      )
      (gtu5): GTU(
        (tanh): Tanh()
        (sigmoid): Sigmoid()
        (con2out): Conv2d(32, 64, kernel_size=(1, 5), stride=(1, 1))
      )
      (gtu7): GTU(
        (tanh): Tanh()
        (sigmoid): Sigmoid()
        (con2out): Conv2d(32, 64, kernel_size=(1, 7), stride=(1, 1))
      )
      (pooling): MaxPool2d(kernel_size=(1, 2), stride=(1, 2), padding=0, dilation=1, ceil_mode=False)
      (residual_conv): Conv2d(1, 32, kernel_size=(1, 1), stride=(1, 1))
      (dropout): Dropout(p=0.05, inplace=False)
      (fcmy): Sequential(
        (0): Linear(in_features=24, out_features=12, bias=True)
        (1): Dropout(p=0.05, inplace=False)
      )
      (ln): LayerNorm((32,), eps=1e-05, elementwise_affine=True)
    )
    (1): DSTAGNN_block(
      (sigmoid): Sigmoid()
      (tanh): Tanh()
      (relu): ReLU(inplace=True)
      (pre_conv): Conv2d(12, 512, kernel_size=(1, 32), stride=(1, 1))
      (EmbedT): Embedding(
        (pos_embed): Embedding(12, 307)
        (norm): LayerNorm((307,), eps=1e-05, elementwise_affine=True)
      )
      (EmbedS): Embedding(
        (pos_embed): Embedding(307, 512)
        (norm): LayerNorm((512,), eps=1e-05, elementwise_affine=True)
      )
      (TAt): MultiHeadAttention(
        (W_Q): Linear(in_features=307, out_features=96, bias=False)
        (W_K): Linear(in_features=307, out_features=96, bias=False)
        (W_V): Linear(in_features=307, out_features=96, bias=False)
        (fc): Linear(in_features=96, out_features=307, bias=False)
      )
      (SAt): SMultiHeadAttention(
        (W_Q): Linear(in_features=512, out_features=96, bias=False)
        (W_K): Linear(in_features=512, out_features=96, bias=False)
      )
      (cheb_conv_SAt): cheb_conv_withSAt(
        (relu): ReLU(inplace=True)
        (Theta): ParameterList(
            (0): Parameter containing: [torch.cuda.FloatTensor of size 32x32 (GPU 0)]
            (1): Parameter containing: [torch.cuda.FloatTensor of size 32x32 (GPU 0)]
            (2): Parameter containing: [torch.cuda.FloatTensor of size 32x32 (GPU 0)]
        )
        (mask): ParameterList(
            (0): Parameter containing: [torch.cuda.FloatTensor of size 307x307 (GPU 0)]
            (1): Parameter containing: [torch.cuda.FloatTensor of size 307x307 (GPU 0)]
            (2): Parameter containing: [torch.cuda.FloatTensor of size 307x307 (GPU 0)]
        )
      )
      (gtu3): GTU(
        (tanh): Tanh()
        (sigmoid): Sigmoid()
        (con2out): Conv2d(32, 64, kernel_size=(1, 3), stride=(1, 1))
      )
      (gtu5): GTU(
        (tanh): Tanh()
        (sigmoid): Sigmoid()
        (con2out): Conv2d(32, 64, kernel_size=(1, 5), stride=(1, 1))
      )
      (gtu7): GTU(
        (tanh): Tanh()
        (sigmoid): Sigmoid()
        (con2out): Conv2d(32, 64, kernel_size=(1, 7), stride=(1, 1))
      )
      (pooling): MaxPool2d(kernel_size=(1, 2), stride=(1, 2), padding=0, dilation=1, ceil_mode=False)
      (residual_conv): Conv2d(32, 32, kernel_size=(1, 1), stride=(1, 1))
      (dropout): Dropout(p=0.05, inplace=False)
      (fcmy): Sequential(
        (0): Linear(in_features=24, out_features=12, bias=True)
        (1): Dropout(p=0.05, inplace=False)
      )
      (ln): LayerNorm((32,), eps=1e-05, elementwise_affine=True)
    )
    (2): DSTAGNN_block(
      (sigmoid): Sigmoid()
      (tanh): Tanh()
      (relu): ReLU(inplace=True)
      (pre_conv): Conv2d(12, 512, kernel_size=(1, 32), stride=(1, 1))
      (EmbedT): Embedding(
        (pos_embed): Embedding(12, 307)
        (norm): LayerNorm((307,), eps=1e-05, elementwise_affine=True)
      )
      (EmbedS): Embedding(
        (pos_embed): Embedding(307, 512)
        (norm): LayerNorm((512,), eps=1e-05, elementwise_affine=True)
      )
      (TAt): MultiHeadAttention(
        (W_Q): Linear(in_features=307, out_features=96, bias=False)
        (W_K): Linear(in_features=307, out_features=96, bias=False)
        (W_V): Linear(in_features=307, out_features=96, bias=False)
        (fc): Linear(in_features=96, out_features=307, bias=False)
      )
      (SAt): SMultiHeadAttention(
        (W_Q): Linear(in_features=512, out_features=96, bias=False)
        (W_K): Linear(in_features=512, out_features=96, bias=False)
      )
      (cheb_conv_SAt): cheb_conv_withSAt(
        (relu): ReLU(inplace=True)
        (Theta): ParameterList(
            (0): Parameter containing: [torch.cuda.FloatTensor of size 32x32 (GPU 0)]
            (1): Parameter containing: [torch.cuda.FloatTensor of size 32x32 (GPU 0)]
            (2): Parameter containing: [torch.cuda.FloatTensor of size 32x32 (GPU 0)]
        )
        (mask): ParameterList(
            (0): Parameter containing: [torch.cuda.FloatTensor of size 307x307 (GPU 0)]
            (1): Parameter containing: [torch.cuda.FloatTensor of size 307x307 (GPU 0)]
            (2): Parameter containing: [torch.cuda.FloatTensor of size 307x307 (GPU 0)]
        )
      )
      (gtu3): GTU(
        (tanh): Tanh()
        (sigmoid): Sigmoid()
        (con2out): Conv2d(32, 64, kernel_size=(1, 3), stride=(1, 1))
      )
      (gtu5): GTU(
        (tanh): Tanh()
        (sigmoid): Sigmoid()
        (con2out): Conv2d(32, 64, kernel_size=(1, 5), stride=(1, 1))
      )
      (gtu7): GTU(
        (tanh): Tanh()
        (sigmoid): Sigmoid()
        (con2out): Conv2d(32, 64, kernel_size=(1, 7), stride=(1, 1))
      )
      (pooling): MaxPool2d(kernel_size=(1, 2), stride=(1, 2), padding=0, dilation=1, ceil_mode=False)
      (residual_conv): Conv2d(32, 32, kernel_size=(1, 1), stride=(1, 1))
      (dropout): Dropout(p=0.05, inplace=False)
      (fcmy): Sequential(
        (0): Linear(in_features=24, out_features=12, bias=True)
        (1): Dropout(p=0.05, inplace=False)
      )
      (ln): LayerNorm((32,), eps=1e-05, elementwise_affine=True)
    )
    (3): DSTAGNN_block(
      (sigmoid): Sigmoid()
      (tanh): Tanh()
      (relu): ReLU(inplace=True)
      (pre_conv): Conv2d(12, 512, kernel_size=(1, 32), stride=(1, 1))
      (EmbedT): Embedding(
        (pos_embed): Embedding(12, 307)
        (norm): LayerNorm((307,), eps=1e-05, elementwise_affine=True)
      )
      (EmbedS): Embedding(
        (pos_embed): Embedding(307, 512)
        (norm): LayerNorm((512,), eps=1e-05, elementwise_affine=True)
      )
      (TAt): MultiHeadAttention(
        (W_Q): Linear(in_features=307, out_features=96, bias=False)
        (W_K): Linear(in_features=307, out_features=96, bias=False)
        (W_V): Linear(in_features=307, out_features=96, bias=False)
        (fc): Linear(in_features=96, out_features=307, bias=False)
      )
      (SAt): SMultiHeadAttention(
        (W_Q): Linear(in_features=512, out_features=96, bias=False)
        (W_K): Linear(in_features=512, out_features=96, bias=False)
      )
      (cheb_conv_SAt): cheb_conv_withSAt(
        (relu): ReLU(inplace=True)
        (Theta): ParameterList(
            (0): Parameter containing: [torch.cuda.FloatTensor of size 32x32 (GPU 0)]
            (1): Parameter containing: [torch.cuda.FloatTensor of size 32x32 (GPU 0)]
            (2): Parameter containing: [torch.cuda.FloatTensor of size 32x32 (GPU 0)]
        )
        (mask): ParameterList(
            (0): Parameter containing: [torch.cuda.FloatTensor of size 307x307 (GPU 0)]
            (1): Parameter containing: [torch.cuda.FloatTensor of size 307x307 (GPU 0)]
            (2): Parameter containing: [torch.cuda.FloatTensor of size 307x307 (GPU 0)]
        )
      )
      (gtu3): GTU(
        (tanh): Tanh()
        (sigmoid): Sigmoid()
        (con2out): Conv2d(32, 64, kernel_size=(1, 3), stride=(1, 1))
      )
      (gtu5): GTU(
        (tanh): Tanh()
        (sigmoid): Sigmoid()
        (con2out): Conv2d(32, 64, kernel_size=(1, 5), stride=(1, 1))
      )
      (gtu7): GTU(
        (tanh): Tanh()
        (sigmoid): Sigmoid()
        (con2out): Conv2d(32, 64, kernel_size=(1, 7), stride=(1, 1))
      )
      (pooling): MaxPool2d(kernel_size=(1, 2), stride=(1, 2), padding=0, dilation=1, ceil_mode=False)
      (residual_conv): Conv2d(32, 32, kernel_size=(1, 1), stride=(1, 1))
      (dropout): Dropout(p=0.05, inplace=False)
      (fcmy): Sequential(
        (0): Linear(in_features=24, out_features=12, bias=True)
        (1): Dropout(p=0.05, inplace=False)
      )
      (ln): LayerNorm((32,), eps=1e-05, elementwise_affine=True)
    )
  )
  (final_conv): Conv2d(48, 128, kernel_size=(1, 32), stride=(1, 1))
  (final_fc): Linear(in_features=128, out_features=12, bias=True)
)
Net's state_dict:
BlockList.0.pre_conv.weight 	 torch.Size([512, 12, 1, 1])
BlockList.0.pre_conv.bias 	 torch.Size([512])
BlockList.0.EmbedT.pos_embed.weight 	 torch.Size([12, 307])
BlockList.0.EmbedT.norm.weight 	 torch.Size([307])
BlockList.0.EmbedT.norm.bias 	 torch.Size([307])
BlockList.0.EmbedS.pos_embed.weight 	 torch.Size([307, 512])
BlockList.0.EmbedS.norm.weight 	 torch.Size([512])
…
