…
  (submodule): ModuleList(
    (0): ASTGCN_submodule(
      (BlockList): ModuleList(
        (0): ASTGCN_block(
          (TAt): Temporal_Attention_layer()
          (SAt): Spatial_Attention_layer()
          (cheb_conv_SAt): cheb_conv_withSAt(
            (Theta): ParameterList(
                (0): Parameter containing: [torch.cuda.FloatTensor of size 1x64 (GPU 0)]
                (1): Parameter containing: [torch.cuda.FloatTensor of size 1x64 (GPU 0)]
                (2): Parameter containing: [torch.cuda.FloatTensor of size 1x64 (GPU 0)]
            )
          )
          (time_conv): Conv2d(64, 64, kernel_size=(1, 3), stride=(1, 1), padding=(0, 1))
          (residual_conv): Conv2d(1, 64, kernel_size=(1, 1), stride=(1, 1))
          (ln): LayerNorm((64,), eps=1e-05, elementwise_affine=True)
        )
        (1): ASTGCN_block(
          (TAt): Temporal_Attention_layer()
          (SAt): Spatial_Attention_layer()
          (cheb_conv_SAt): cheb_conv_withSAt(
            (Theta): ParameterList(
                (0): Parameter containing: [torch.cuda.FloatTensor of size 64x64 (GPU 0)]
                (1): Parameter containing: [torch.cuda.FloatTensor of size 64x64 (GPU 0)]
                (2): Parameter containing: [torch.cuda.FloatTensor of size 64x64 (GPU 0)]
            )
          )
          (time_conv): Conv2d(64, 64, kernel_size=(1, 3), stride=(1, 1), padding=(0, 1))
          (residual_conv): Conv2d(64, 64, kernel_size=(1, 1), stride=(1, 1))
          (ln): LayerNorm((64,), eps=1e-05, elementwise_affine=True)
        )
      )
      (final_conv): Conv2d(4, 4, kernel_size=(1, 64), stride=(1, 1))
    )
    (1): ASTGCN_submodule(
      (BlockList): ModuleList(
        (0): ASTGCN_block(
          (TAt): Temporal_Attention_layer()
          (SAt): Spatial_Attention_layer()
          (cheb_conv_SAt): cheb_conv_withSAt(
            (Theta): ParameterList(
                (0): Parameter containing: [torch.cuda.FloatTensor of size 1x64 (GPU 0)]
                (1): Parameter containing: [torch.cuda.FloatTensor of size 1x64 (GPU 0)]
                (2): Parameter containing: [torch.cuda.FloatTensor of size 1x64 (GPU 0)]
            )
          )
          (time_conv): Conv2d(64, 64, kernel_size=(1, 3), stride=(1, 1), padding=(0, 1))
          (residual_conv): Conv2d(1, 64, kernel_size=(1, 1), stride=(1, 1))
          (ln): LayerNorm((64,), eps=1e-05, elementwise_affine=True)
        )
        (1): ASTGCN_block(
          (TAt): Temporal_Attention_layer()
          (SAt): Spatial_Attention_layer()
          (cheb_conv_SAt): cheb_conv_withSAt(
            (Theta): ParameterList(
                (0): Parameter containing: [torch.cuda.FloatTensor of size 64x64 (GPU 0)]
                (1): Parameter containing: [torch.cuda.FloatTensor of size 64x64 (GPU 0)]
                (2): Parameter containing: [torch.cuda.FloatTensor of size 64x64 (GPU 0)]
            )
          )
          (time_conv): Conv2d(64, 64, kernel_size=(1, 3), stride=(1, 1), padding=(0, 1))
          (residual_conv): Conv2d(64, 64, kernel_size=(1, 1), stride=(1, 1))
          (ln): LayerNorm((64,), eps=1e-05, elementwise_affine=True)
        )
      )
      (final_conv): Conv2d(4, 4, kernel_size=(1, 64), stride=(1, 1))
    )
    (2): ASTGCN_submodule(
      (BlockList): ModuleList(
        (0): ASTGCN_block(
          (TAt): Temporal_Attention_layer()
          (SAt): Spatial_Attention_layer()
          (cheb_conv_SAt): cheb_conv_withSAt(
            (Theta): ParameterList(
                (0): Parameter containing: [torch.cuda.FloatTensor of size 1x64 (GPU 0)]
                (1): Parameter containing: [torch.cuda.FloatTensor of size 1x64 (GPU 0)]
                (2): Parameter containing: [torch.cuda.FloatTensor of size 1x64 (GPU 0)]
            )
          )
          (time_conv): Conv2d(64, 64, kernel_size=(1, 3), stride=(1, 1), padding=(0, 1))
          (residual_conv): Conv2d(1, 64, kernel_size=(1, 1), stride=(1, 1))
          (ln): LayerNorm((64,), eps=1e-05, elementwise_affine=True)
        )
        (1): ASTGCN_block(
          (TAt): Temporal_Attention_layer()
          (SAt): Spatial_Attention_layer()
          (cheb_conv_SAt): cheb_conv_withSAt(
            (Theta): ParameterList(
                (0): Parameter containing: [torch.cuda.FloatTensor of size 64x64 (GPU 0)]
                (1): Parameter containing: [torch.cuda.FloatTensor of size 64x64 (GPU 0)]
                (2): Parameter containing: [torch.cuda.FloatTensor of size 64x64 (GPU 0)]
            )
          )
          (time_conv): Conv2d(64, 64, kernel_size=(1, 3), stride=(1, 1), padding=(0, 1))
          (residual_conv): Conv2d(64, 64, kernel_size=(1, 1), stride=(1, 1))
          (ln): LayerNorm((64,), eps=1e-05, elementwise_affine=True)
        )
      )
      (final_conv): Conv2d(4, 4, kernel_size=(1, 64), stride=(1, 1))
    )
  )
)
Net's state_dict:
submodule.0.W 	 torch.Size([277, 4])
submodule.0.BlockList.0.TAt.U1 	 torch.Size([277])
submodule.0.BlockList.0.TAt.U2 	 torch.Size([1, 277])
submodule.0.BlockList.0.TAt.U3 	 torch.Size([1])
submodule.0.BlockList.0.TAt.be 	 torch.Size([1, 4, 4])
submodule.0.BlockList.0.TAt.Ve 	 torch.Size([4, 4])
submodule.0.BlockList.0.SAt.W1 	 torch.Size([4])
…
