…
        "tod_embedding_dim": 12,
        "dow_embedding_dim": 4,
        "out_steps": 4,
        "hidden_dim": 64,
        "num_layers": 1,
        "cheb_k": 2,
        "ycov_dim": 2,
        "node_embedding_dim": 16,
        "st_embedding_dim": 16,
        "tf_decay_steps": 4000,
        "use_teacher_forcing": true
    }
}
==========================================================================================
Layer (type:depth-idx)                   Output Shape              Param #
==========================================================================================
HimNet                                   [16, 4, 277, 1]           4,432
├─Embedding: 1-1                         [16, 12]                  1,152
├─Embedding: 1-2                         [16, 4]                   28
├─HimEncoder: 1-3                        [16, 4, 277, 64]          --
│    └─ModuleList: 2-1                   --                        --
│    │    └─HimGCRU: 3-1                 [16, 277, 64]             414,720
│    │    └─HimGCRU: 3-2                 [16, 277, 64]             (recursive)
│    │    └─HimGCRU: 3-3                 [16, 277, 64]             (recursive)
│    │    └─HimGCRU: 3-4                 [16, 277, 64]             (recursive)
├─HimEncoder: 1-4                        [16, 4, 277, 64]          --
│    └─ModuleList: 2-2                   --                        --
│    │    └─HimGCRU: 3-5                 [16, 277, 64]             414,720
│    │    └─HimGCRU: 3-6                 [16, 277, 64]             (recursive)
│    │    └─HimGCRU: 3-7                 [16, 277, 64]             (recursive)
│    │    └─HimGCRU: 3-8                 [16, 277, 64]             (recursive)
├─Linear: 1-5                            [16, 277, 16]             1,040
├─HimDecoder: 1-6                        [16, 277, 64]             --
│    └─ModuleList: 2-6                   --                        (recursive)
│    │    └─HimGCRU: 3-9                 [16, 277, 64]             414,720
├─Linear: 1-7                            [16, 277, 1]              65
├─HimDecoder: 1-8                        [16, 277, 64]             (recursive)
│    └─ModuleList: 2-6                   --                        (recursive)
│    │    └─HimGCRU: 3-10                [16, 277, 64]             (recursive)
├─Linear: 1-9                            [16, 277, 1]              (recursive)
├─HimDecoder: 1-10                       [16, 277, 64]             (recursive)
│    └─ModuleList: 2-6                   --                        (recursive)
…
